CSI_data/model_fine_tuning.ckpt (torch, 116619 bytes, 26 tensors)

C.0.weight f4 [32, 1, 5]
000000 b1 f1 92 3e 04 c0 f5 3d 53 4a c0 bd 55 a2 a3 bc
       0.2870002 0.11999515 -0.09389176 -0.019974867
000010 1b d5 33 3e 6a 47 a8 3e 11 e4 1d 3e ca 3c 88 be
       0.17561762 0.32866985 0.15419032 -0.26608878
000020 02 84 c8 3e 45 3b 53 bd 83 59 c0 3e bd 5f c4 3e
       0.39163214 -0.051570196 0.37568292 0.38354293
000030 e6 28 a1 be 85 00 43 bd c6 00 2f 3e 3c 2a b3 bd
       -0.31476516 -0.047607917 0.17090139 -0.0874829
000040 f2 f4 54 3e 67 4c b7 ba 3d 1c d7 3e cf db 7d 3e
       0.20796564 -0.0013984562 0.42013732 0.24790882
000050 bd 8c d6 3e 0a fe c6 3e f4 11 77 be d6 be 19 be
       0.4190425 0.3886569 -0.24127942 -0.15014204
000060 a3 a5 ad be cf 5b e1 3e 8c 82 80 3c ca 06 10 bc
       -0.33915433 0.44015357 0.01568725 -0.008790681
000070 1a 1f ab be 9e 9c 87 be 58 ea 04 3e fc 5d 83 3c
       -0.33422166 -0.26486677 0.1298002 0.016036026
000080 6b f6 b9 be a4 70 d4 be 20 62 f2 bd 8b 18 3a be
       -0.36320814 -0.41492188 -0.11835122 -0.18173425
000090 05 bd c3 3e c2 42 f5 3d 4b c4 88 bd b1 04 19 be
       0.38230148 0.11975624 -0.06678065 -0.14943196
0000a0 82 44 74 3e 04 97 cf 3e b1 8d 87 be b1 70 c3 be
       0.23854259 0.40544903 -0.2647529 -0.38171914
0000b0 83 1d ab be ea 47 23 3e 0f 2a ab bd b1 0f 56 3d
       -0.33420953 0.15945402 -0.083576314 0.05226106
0000c0 86 30 8f be 6c e5 9c be c3 80 d2 be d0 bb d6 bd
       -0.27966708 -0.30643785 -0.41113862 -0.10485041
0000d0 ef 20 f5 3b f5 62 43 3e 2f bd 6a 3e ea d1 9e be
       0.0074807326 0.19080718 0.2292373 -0.31019527
0000e0 f6 66 41 3e 5c 1d e0 3d 01 31 de bd 53 7a 8a be
       0.18886933 0.109431 -0.108491905 -0.2704645
0000f0 a9 f2 71 be 0a 6c a4 be 78 c7 57 be 47 0d 8d 3d
       -0.23627724 -0.32113677 -0.21072185 0.06887298
000100 b2 0d 88 3e 3d 22 d0 be cf 61 a3 3e 59 61 d6 be
       0.2657295 -0.40651122 0.3191056 -0.41871145
000110 6f d0 af 3e a9 35 db be 4f 40 4c 3e 50 96 8f be
       0.3433871 -0.42814377 0.19946407 -0.28044367
000120 d9 2d 9f 3e 47 80 c8 3e 32 93 97 3b 5d 50 27 be
       0.31089666 0.39160368 0.0046257013 -0.1633925
000130 c1 2b bb 3e 42 58 a7 be 62 ea 0a be 03 1c 2b bd
       0.3655682 -0.32684523 -0.13565972 -0.04177476
000140 dd 9b ad bd 52 7c 37 be f1 32 db be f4 c7 d1 be
       -0.08476994 -0.17918518 -0.42812303 -0.40972865
000150 1f 86 9c 3d 69 a2 69 bd 31 97 38 be 3f 08 d3 3d
       0.07642769 -0.057039652 -0.18026425 0.10304307
000160 3c 14 ca bd 3a 0b d3 be de bf 0a 3d 91 15 d5 3e
       -0.09867141 -0.41219503 0.033874385 0.41618016
000170 35 4f ca 3e ad 71 bc be c9 8d dc be dd ca ee 3c
       0.39513555 -0.36805478 -0.43076923 0.029149467
000180 fc fa b1 be b3 0f 5f 3e 4c 20 01 be 6d 29 96 3e
       -0.34761798 0.21783333 -0.12609977 0.2932848
000190 b1 de 8f be 17 17 be be 7f 79 85 be 1a 4b 8f be
       -0.28099588 -0.3712699 -0.26069257 -0.27986985
0001a0 a0 35 96 be 0c 3b 06 3e aa ea c6 3e 70 8e 7c 3e
       -0.29337788 0.13108462 0.3885091 0.2466371
0001b0 76 f3 25 be 60 db 05 be a3 4c 14 3d 00 b4 53 be
       -0.16206154 -0.13071966 0.0362059 -0.20674133
0001c0 2b ff ac bc 49 e0 c0 3e 5d d9 ab 3e f6 6a 3c be
       -0.021117767 0.37671116 0.33564273 -0.18400177
0001d0 c2 00 5c 3e 3a 78 c3 3e 4e 19 d9 3e f8 ad 37 3e
       0.21484664 0.38177663 0.42402118 0.17937458
0001e0 25 92 cd 3e 75 de 84 bd 5f 9d de bd d1 82 27 be
       0.40150562 -0.06487743 -0.1086986 -0.16358496
0001f0 a9 58 cc be bb 75 cb be a6 a3 09 be 28 a1 77 3e
       -0.39911392 -0.3973826 -0.13441333 0.2418257
000200 85 34 93 3e 98 9d 9c 3c 77 2a de be 21 a3 86 3b
       0.28751007 0.019118115 -0.43391773 0.004108802
000210 8c 80 b3 bd 7c 1d d2 3e 79 e3 98 3e 0f f9 e8 bc
       -0.08764753 0.4103812 0.29861048 -0.028439073
000220 04 1f 77 3c 7c bd 03 3d 6b 0c 9b be 05 af 8b bd
       0.015083078 0.03216313 -0.30282912 -0.06820492
000230 83 07 a3 3e 62 8a 4c be a7 1f b1 bd f9 cb 64 3d
       0.31841668 -0.19974664 -0.08648615 0.055858586
000240 e1 91 10 3d c9 99 be bc 60 05 d7 be cb d9 6c 3d
       0.03529537 -0.02326669 -0.41996288 0.05782489
000250 0d 47 93 be 2c 40 63 3b 74 55 ae 3e d1 ae e9 3e
       -0.28765145 0.00346757 0.3404957 0.45641187
000260 46 47 dd 3c bf 79 38 be 64 b8 b1 3e 03 45 26 3e
       0.027011525 -0.18015192 0.3471099 0.16237263
000270 39 fb f5 bd 91 a4 66 be 15 f3 4e bd 41 b9 0b 3e
       -0.120108075 -0.22523715 -0.05052479 0.13644888

C.0.bias f4 [32]
000000 ff fe e3 be 38 38 4d 3e dd 84 be be 2d 6d 38 3d
       -0.44530484 0.20040977 -0.37210742 0.045025993
000010 40 91 9c 3d d9 ef c8 3e 1c af bb be bf 21 e2 3d
       0.07644892 0.3924549 -0.36657035 0.11041593
000020 d9 10 d7 3e 99 9f 78 be 9d b4 0d be 33 f7 d2 3c
       0.4200504 -0.24279632 -0.1383843 0.02575264
000030 fa 9a 2c 3b cc be 89 3e 24 21 96 be 8d 71 1e 3e
       0.002633749 0.2690338 -0.2932216 0.15473004
000040 4e 61 3d 3b 0c 44 68 3d f4 39 e4 3e 2f 66 10 3e
       0.002889711 0.05670552 0.44575465 0.1410148
000050 c0 d8 d8 3e 94 3e 2a 3d 04 db 51 be 66 8f 70 bc
       0.42352867 0.041563585 -0.20493704 -0.014682626
000060 55 ad da 3d 64 9c e8 be 12 db d3 be 0a 1a d6 be
       0.10677592 -0.45431817 -0.41378075 -0.4181674
000070 3e 43 9e be 1d 5e d4 be b3 87 83 be 1b 08 e0 3e
       -0.30910677 -0.41478053 -0.25689468 0.43756184

C.1.weight f4 [32]
000000 d6 50 7f 3f 35 55 7f 3f da 48 81 3f 17 76 81 3f
       0.9973272 0.9973939 1.0100358 1.0114163
000010 2f 85 80 3f f3 a9 81 3f af b5 80 3f 02 7c 72 3f
       1.0040644 1.0129989 1.0055445 0.9472047
000020 da 28 82 3f 73 4e 80 3f 25 d9 83 3f ce b5 7b 3f
       1.0168717 1.0023941 1.0300642 0.98324287
000030 c3 d0 80 3f 4f f6 75 3f 67 e5 7e 3f 3f b6 79 3f
       1.0063709 0.9607896 0.9956879 0.9754371
000040 3a 01 82 3f 61 83 80 3f e9 b1 83 3f 40 55 6c 3f
       1.0156624 1.0040094 1.0288669 0.9231758
000050 1c 18 82 3f 22 0c 7f 3f a1 09 80 3f 74 c3 81 3f
       1.0163608 0.9962789 1.0002939 1.0137773
000060 13 d9 81 3f a1 e7 86 3f 40 3e 84 3f 07 b8 80 3f
       1.0144371 1.0539438 1.0331497 1.0056161
000070 c5 a1 73 3f 87 e4 80 3f b4 6e 7e 3f 33 d4 7d 3f
       0.95168716 1.0069741 0.9938767 0.99151915

C.1.bias f4 [32]
000000 2b 6d 31 3d 8e 1b 11 bc 42 ed 20 3c c7 44 73 3d
       0.043317 -0.008856667 0.009822192 0.059391763
000010 c3 16 ce bc f7 74 9f 3b 25 f3 a2 bc dc 87 2e bc
       -0.025157338 0.004866238 -0.019891331 -0.010652509
000020 0c 58 ea bc a8 42 07 3d 36 7b 01 bc 1d e4 2e 3c
       -0.028606437 0.033022553 -0.007902911 0.010674504
000030 9e 3b ba bc 1a 57 43 3c 5c c2 51 bb e3 29 de bc
       -0.022733506 0.011922622 -0.0032006716 -0.027119583
000040 72 a5 9e 3c 9a 38 56 bb 30 59 82 3a 7e 9c d9 bb
       0.019366 -0.0032687546 0.0009944793 -0.00664097
000050 dd 58 a5 3c 44 26 f6 3b d4 1f 00 3d 3d ff a9 bc
       0.020183975 0.007511886 0.031280354 -0.02075159
000060 29 34 aa 3b 8e 67 ce bc d5 a7 87 3c 25 97 a7 3c
       0.0051942063 -0.025195863 0.01655952 0.020457814
000070 e6 16 d3 ba 34 46 2f 3c 70 c0 b0 bc 0c b9 ec bc
       -0.0016104847 0.01069789 -0.021576136 -0.028896831

C.1.running_mean f4 [32]
000000 cd e1 0b bf 74 22 a7 3d d7 b7 fb be 3f 2f 01 be
       -0.5464142 0.08160868 -0.49163696 -0.12615679
000010 b6 b8 85 3d fe bf da 3e 72 19 4d be 63 31 b9 3d
       0.065293714 0.42724603 -0.20029238 0.09042623
000020 d3 a9 ff 3e e1 f0 11 be dc 28 f8 bd 8e 79 e6 3d
       0.49934253 -0.14252044 -0.12117168 0.112536535
000030 7a b6 c1 3d a8 51 ce 3e a7 ed dd be 4a 66 66 3e
       0.09458633 0.40296674 -0.43345377 0.22499958
000040 21 84 68 3e b8 87 49 3e 7e 93 e0 3e a1 eb f9 3d
       0.22706653 0.19680679 0.43862528 0.12203146
000050 7c 2e 3f 3f 60 77 72 bd 1f 79 a4 be dc 15 73 be
       0.74680305 -0.059195876 -0.32123658 -0.23738807
000060 9f df 39 3e 5e e7 eb be 4f d9 e9 be 67 97 ae be
       0.18151711 -0.46074957 -0.45673606 -0.34099886
000070 06 88 ac be 11 50 8b be a5 be f0 be 0e d0 ea 3e
       -0.33697528 -0.27209523 -0.4702045 0.45861858

C.1.running_var f4 [32]
000000 15 a3 36 3d 5b 6d 8c 3d 44 14 96 3d 1f 32 0d 3e
       0.04458912 0.068567954 0.07328084 0.13788651
000010 4e 4d 35 3d 8f b0 06 3d 3a 34 0b 3e 4c 68 d5 3b
       0.044263177 0.032883223 0.13594142 0.0065126773
000020 ce 6e 81 3d ee 6b 5d 3d d2 4c c4 3c 90 54 f3 3c
       0.063199624 0.054058008 0.023962412 0.029703408
000030 3d 60 7c 3d c7 6c 89 3d 4d c8 b4 3d bc 2a b4 3c
       0.061615217 0.06710201 0.08827267 0.021993034
000040 82 24 73 3e 66 21 b0 3d d9 a3 00 3d c2 d3 08 3c
       0.23744395 0.0860012 0.031406257 0.008351268
000050 9d 64 ec 3e d0 9c 7b 3d 14 ef 8a 3d ad 09 73 3e
       0.46170512 0.061428845 0.06783882 0.2373416
000060 4e 4c 4a 3d 53 f6 93 3c 1c 6c 1d 3d 16 1c e5 3c
       0.049389176 0.018061792 0.03843318 0.027967494
000070 60 79 70 3b ca 46 cb 3d 05 cd 4e 3e 17 3e 99 3b
       0.003669344 0.09925611 0.20195396 0.004676591

C.3.weight f4 [32, 32, 5]
000000 77 fe c7 3c d8 4c 08 3d f2 df b7 3c a6 14 c0 3c
       0.02441333 0.03327641 0.022445653 0.023447346
000010 fb c6 32 bd 5a 0c 39 bd 27 99 69 3c 2a 13 99 bd
       -0.043646794 -0.045177795 0.014257706 -0.074743584
000020 60 63 d5 3c 4a a3 95 3d 2b 93 cf 3c 39 99 9b bd
       0.026048362 0.073065355 0.02533873 -0.07597584
000030 dc cd 4f 3c 69 95 66 3d 3c 81 bf 3c a2 0e 35 3d
       0.012683358 0.056294832 0.023377053 0.044203408
000040 af 01 52 3d 53 a9 db bc 6d 4a d6 ba 9a f2 ab 3d
       0.051271137 -0.026814139 -0.0016349085 0.08395882
000050 d5 8d 96 bd 65 00 26 3d 2b f3 80 bb 82 f7 cc 3c
       -0.07351271 0.04052772 -0.003935238 0.025020365
000060 da bf 00 bc fe b7 9e 3c 9d 18 65 3c 52 d9 45 3d
       -0.007858241 0.019374844 0.013982919 0.048302956
000070 4f 2f 94 bd 22 f9 8b bd 27 2c 63 bd 0b 7e 64 bd
       -0.07235586 -0.06834628 -0.05546203 -0.055784266
000080 7a e9 d0 3b 7d ac 06 3d f5 f3 5e 3d b1 dd 22 bc
       0.006375489 0.03287934 0.054431874 -0.009940551
000090 b7 5d d9 bc bd 9c 9f bc 1a 71 af bc a3 d1 49 bd
       -0.026533945 -0.019483918 -0.021416236 -0.04927219
0000a0 92 27 a0 3d ec c4 45 3c dd 11 68 bd df b3 b2 bc
       0.078200474 0.012070876 -0.05665766 -0.021814285
0000b0 23 9b db bc f6 5f 0a 3c 9d 2b 90 3d 44 b6 50 bd
       -0.026807373 0.00844573 0.070395686 -0.050955072
0000c0 dd b3 dc 3c cf 4a 56 bd 3f 8c f2 3c a6 87 64 3d
       0.026941234 -0.052317437 0.02960789 0.055793427
0000d0 c0 20 c1 3c 22 22 75 3d 2d d8 5a 3c 8c 21 d5 3c
       0.023575187 0.059847005 0.013357204 0.026016973
0000e0 44 6d 8b bc e5 47 08 bd 28 f6 2a 3d 18 1e c0 bc
       -0.017019875 -0.03327169 0.04173866 -0.02345185
0000f0 a4 1b ba bd 86 fd 56 bd 8f 8c 11 bd a4 95 25 3d
       -0.09087303 -0.052487873 -0.035534438 0.04042591
000100 db 83 21 3d 48 76 a5 3d 64 39 c2 bc 81 68 b8 3a
       0.039432388 0.08079201 -0.023709007 0.001406923
000110 df af 36 3c 14 dc 18 3d e9 74 82 3d 3e 62 f8 3c
       0.011150329 0.037319258 0.06369955 0.030320283
000120 03 b8 9d bd 54 51 94 3d 8e 0e b5 3d 68 33 09 bd
       -0.07701113 0.072420746 0.08840667 -0.03349629
000130 a6 b5 26 bd b0 e1 f9 bc 8f b9 b5 bc 1e 23 27 bd
       -0.040700577 -0.030503124 -0.022183208 -0.040804975
000140 69 ff 6e 3d fc 8d 0d 3d 5a f4 78 3c 19 9a 6e bd
       0.058349047 0.034559235 0.015194977 -0.058252428
000150 4b 9e fd bc 26 7b 99 bd e9 ff 90 3d 8e 14 93 3d
       -0.030959269 -0.07494192 0.07080061 0.07181655
000160 1a 5a c4 3c bb 94 9c bd fc e7 21 bd 73 ad 8a 3d
       0.023968745 -0.076455556 -0.03952788 0.06771364
000170 d4 c7 32 bd 40 fb 10 3a 10 21 61 3d 68 2b 04 3d
       -0.043647602 0.0005530603 0.05496317 0.032267958
000180 d4 d2 15 3d 5c e8 a9 ba 0d 86 bd bc 78 ef 9f 3c
       0.036578014 -0.0012962925 -0.02313521 0.019523367
000190 e7 bb 85 3d 17 9f 91 3d 2d 4e a2 3c 19 a0 76 bd
       0.0652998 0.07110422 0.019812668 -0.060211275
0001a0 9a d9 34 bd 3f 66 a3 ba c2 1c 84 bc db 19 05 3d
       -0.044152834 -0.0012466385 -0.016126994 0.03249536
0001b0 04 34 84 3c 38 6a 21 bd dc f2 0e bd 6a be 95 3c
       0.016138084 -0.03940794 -0.034899577 0.018279273
0001c0 c9 54 43 bd 3e 8c 83 3d 99 2d d3 3c 1c 0b 62 bc
       -0.04768828 0.064232334 0.025778579 -0.013796594
0001d0 c5 d6 d8 bc c9 74 cc 3c 5f 25 81 3d 86 13 b5 bc
       -0.026469598 0.024958031 0.06305956 -0.022104036
0001e0 e3 ea 7e 3d d5 26 18 bd f6 70 8d bd 9d 17 56 3d
       0.062235724 -0.037146408 -0.06906311 0.052268613
0001f0 ac 83 72 3d dd 77 81 bd 87 a0 b8 3c d8 4a 79 3d
       0.059207603 -0.0632169 0.022537483 0.060862392
000200 cc 15 3a 3d 45 e3 3d bd 65 b8 39 bd 02 2a 19 3d
       0.045430943 -0.04635932 -0.045341868 0.037393577
000210 f4 33 e7 bb 1c f8 a5 3c 5d c9 24 3d 5f 25 4d bd
       -0.007055754 0.02025991 0.040231097 -0.050084468
000220 5e 45 bc 3c 54 40 a4 3c b3 5c 60 3d a9 e0 18 bd
       0.022982296 0.020050205 0.054775905 -0.037323628
000230 d1 8c ae bd 12 ae 4a 3d 1f bb 97 3c 4d 24 89 bd
       -0.08522952 0.049482413 0.018521843 -0.06696377
000240 db 98 1a 3d c8 d6 78 3d 20 f2 82 bd 57 e4 e4 3c
       0.03774343 0.060751706 -0.06393838 0.027940912
000250 88 b8 9e 3c d8 1f 87 bd 4a 05 15 3b b1 19 50 3d
       0.0193751 -0.065978706 0.0022738748 0.05080575
000260 af 69 c9 bc 75 f6 32 3d fb e0 65 bc 5c 4a 9f bd
       -0.024586527 0.04369207 -0.01403069 -0.07777855
000270 4e c6 b9 3d f3 3d 3e bb cf 72 c5 bc 57 18 62 bc
       0.09071027 -0.0029028624 -0.024102597 -0.013799748
000280 4c ff 63 bd 85 6d 43 3d 37 11 95 3d b9 8b 7b bd
       -0.055663392 0.047711868 0.07278674 -0.061412547
000290 e7 30 b6 bc e5 96 c0 bc 5d ba 04 bd 4d 76 19 bd
       -0.022240115 -0.023509452 -0.032404292 -0.037466336
0002a0 c9 c6 0e bd 21 dc 4f 3d 0c b5 49 bd 65 cc da bb
       -0.034857545 0.05074704 -0.049244925 -0.0066771978
0002b0 cf 17 d2 3b 4b 9b bd bb 28 40 1b 3c 6c ba 1e bc
       0.0064115296 -0.0057863346 0.009475745 -0.009688001
0002c0 95 65 34 bd 1c 9d 5d 3b 64 f4 8c bd a9 7d 3e bd
       -0.04404219 0.0033815568 -0.06882551 -0.046506558
0002d0 1b 78 46 bd 67 e6 13 3d cf d5 e9 3c 91 ce f6 3c
       -0.048454385 0.0361084 0.028544335 0.030127795
0002e0 bc eb ba 3c 30 4c 8f ba c2 ed 0c 3d e0 dc 86 3d
       0.022817485 -0.001093274 0.03440643 0.06585097
0002f0 e4 91 36 3d 44 4e 4b 3c ad d2 69 bc 26 87 a5 bd
       0.044572726 0.012408797 -0.01427142 -0.08082418
000300 d5 85 3f 3d b6 b9 89 3d b2 13 65 3d 44 57 62 ba
       0.04675849 0.06724875 0.055926986 -0.00086342194
000310 5b 5a 3b bc 16 d9 32 bc d8 62 90 bd 26 98 23 3d
       -0.011435117 -0.010916015 -0.07050103 0.039940022
000320 72 fc 8a bd 79 12 82 3d 17 6e cb 39 ac a2 04 3d
       -0.06786431 0.0635118 0.000388012 0.0323817
000330 71 0c 2b bb 71 9b 86 3d a6 2a 65 3d 59 c1 6a 3d
       -0.0026099945 0.06572617 0.055948876 0.057313297
000340 4f bb 87 bc 90 ac 30 3d 20 0c 03 3d 9d ae 8e bd
       -0.016568808 0.04313332 0.031993985 -0.069668986
000350 02 bd 49 3b 9d d9 8b 3d 76 94 27 bd 0e 65 28 3d
       0.0030782823 0.06828616 -0.040913068 0.041112
000360 4d c3 a8 bc 26 90 61 3d 87 00 e1 bc ee 6c ec 3c
       -0.02060094 0.05506911 -0.027466072 0.028860535
000370 35 af 51 bd 7e 1b a4 3d 0e 45 9a bd 0d 55 7d bd
       -0.05119248 0.08013056 -0.075327024 -0.06184869
000380 1c 32 26 bd e0 84 87 3d 87 6e 09 b9 69 b5 e1 3b
       -0.04057513 0.06617141 -0.00013106513 0.006888081
000390 66 96 b6 3b 56 1d dc 3b 0e d2 9f bd c3 4d a9 bd
       0.005572128 0.0067173643 -0.078037366 -0.08266785
0003a0 eb 6c 2e 3d 71 bf 17 3d ab ee 7b bd 66 de 45 bd
       0.04258434 0.037047807 -0.06150691 -0.0483078
0003b0 79 b2 33 3d 39 f5 1e bd be 4a bd bd 74 ce a4 3c
       0.043871377 -0.03880808 -0.092427716 0.020117976
0003c0 9a 4f 86 3d 5b 6d 85 3d 83 76 8c bc 12 f7 4a 3d
       0.065581515 0.065149985 -0.017146355 0.04955203
0003d0 45 7c 8d bd e1 3a c4 3c ad bd 6b 3d fd 9e b3 bd
       -0.06908468 0.023953857 0.057553936 -0.08770559
0003e0 6f 7e 7e 3c bb 64 ae bc cf 0a 2f bc a9 40 46 3c
       0.015533074 -0.021288266 -0.010683729 0.012100377
0003f0 59 ee 3a bb c4 b4 10 3d 55 18 1e bd d4 05 de 3c
       -0.0028523414 0.03532864 -0.038597424 0.027102388

C.3.bias f4 [32]
000000 88 5f ce bc fb 65 47 bd 82 2b 11 bb 15 7a 2d bd
       -0.025192037 -0.04868124 -0.0022151177 -0.042352755
000010 7d b2 9c bd d2 fe 3c bd d7 8f 8c bd 8f d3 a1 bd
       -0.076512314 -0.046141453 -0.06863373 -0.0790168
000020 97 e1 ee bc bf 93 a2 3c 66 79 bd 3b b0 b6 88 bd
       -0.029160304 0.019845841 0.005782294 -0.0667547
000030 6c 81 98 bc 2b 19 4a 3d 6a c0 a1 3d c5 fb 5a 3d
       -0.0186164 0.04934041 0.07898028 0.053462762
000040 6c 7f 48 3d a0 57 99 bb c7 f5 51 3d d5 d9 a1 bd
       0.048949644 -0.004679635 0.051259782 -0.07902876
000050 72 3c 9b bc 91 78 64 bd fb 68 94 3d 0e 3c 81 bd
       -0.018949721 -0.055779044 0.07246586 -0.06310283
000060 98 40 08 3d 27 ab e7 3b f4 16 26 3d 1c bc 0d 3d
       0.033264726 0.0070699635 0.040549234 0.034603223
000070 f6 9d a5 3d 3a 50 83 3c 12 be 8f 3b 31 e8 15 3c
       0.08086769 0.016029466 0.004386672 0.009149597

C.4.weight f4 [32]
000000 6c e4 80 3f 0c 89 7e 3f 20 d3 7c 3f 93 c2 7c 3f
       1.0069709 0.99427867 0.9875965 0.98734397
000010 89 6c 82 3f 9e a9 82 3f 1e e4 7d 3f 46 a8 81 3f
       1.0189372 1.0208013 0.99176204 1.0129478
000020 61 78 7b 3f c7 4b 7b 3f 78 0e 7d 3f fd 14 83 3f
       0.9823056 0.981625 0.988502 1.024078
000030 e7 fa 7d 3f 6a 03 7e 3f bf e3 7c 3f 0e 4d 7e 3f
       0.9921097 0.9922396 0.9878501 0.99336326
000040 57 41 80 3f 27 e6 7b 3f b1 97 84 3f 3f 84 7c 3f
       1.001994 0.9839806 1.0358793 0.9863929
000050 58 cb 81 3f 6a 42 7e 3f 02 e9 7d 3f 8f 14 80 3f
       1.014018 0.9932009 0.99183667 1.0006274
000060 a6 47 77 3f e1 7e 7f 3f 57 a0 80 3f 02 23 81 3f
       0.965937 0.99802977 1.0048932 1.0088809
000070 b6 1a 81 3f 67 ff 80 3f 50 9f 80 3f d2 97 7e 3f
       1.0086277 1.0077943 1.0048618 0.9945041

C.4.bias f4 [32]
000000 d0 d5 82 bb 43 c0 6e 3c 78 48 c2 ba fa 95 c7 3a
       -0.0039927736 0.014572206 -0.0014822623 0.0015227192
000010 a5 f2 d6 3b de f3 85 bb 3f cc 03 3c ea 4f bf ba
       0.006559687 -0.004087909 0.0080443015 -0.001459596
000020 3e 6e d0 bc 2f 84 43 bc 40 11 7c bb 02 73 c7 3c
       -0.025443193 -0.0119333705 -0.003846243 0.024346832
000030 65 59 dc ba 14 b3 11 3c 50 2a 2f bc 28 a6 7e bc
       -0.001681131 0.008892793 -0.01069124 -0.015542544
000040 7c ba b7 3c 24 39 d5 bc 4b 87 1d 3d ba 69 0d 3b
       0.02242779 -0.026028223 0.038459104 0.002157791
000050 67 31 bf bc 6b 9c ba bb 03 89 5a bc d3 87 8a bb
       -0.023338987 -0.005694916 -0.01333833 -0.0042276173
000060 5a a4 09 bd 2c c7 84 3c 1a 92 b2 3c 05 09 75 bc
       -0.033604003 0.016208254 0.021798182 -0.014955764
000070 c9 79 0c bd 90 d5 d0 bc 72 e0 8d 3b db b0 86 3b
       -0.03429583 -0.02549246 0.0043297345 0.0041104383

C.4.running_mean f4 [32]
000000 c1 b2 41 3e 6b b6 7f 3c 50 1d ff 3e 4b ba 82 3e
       0.18915845 0.015607457 0.4982705 0.25532755
000010 ab 86 33 be 6e e2 8e be 3f 9e d2 3c 3e 75 54 be
       -0.1753184 -0.27907127 0.025710223 -0.2074785
000020 0b 50 51 be c1 93 ab be 53 24 84 3c cf c6 28 bf
       -0.2044069 -0.33511165 0.016130602 -0.6592836
000030 31 6e bb 3c a9 81 46 bf 0a c8 aa bd 16 03 5f 3e
       0.022879692 -0.77541596 -0.08338936 0.21778521
000040 68 91 da 3e 46 63 1c bf db 93 c0 bd ba 6b ea bd
       0.4268906 -0.6108898 -0.09403201 -0.114463285
000050 2e 7e 4c 3d 18 46 0f be db d7 b4 3d a9 a1 4e 3b
       0.04992502 -0.13991582 0.08830234 0.0031529462
000060 dd 3a a7 bc 63 2a 9f 3e 69 a3 56 3e 34 c8 9a be
       -0.02041381 0.31087026 0.20960774 -0.30230868
000070 92 f3 44 3d 1e 2b d8 3e 97 07 dc 3e 8b 60 7a bd
       0.04808385 0.42220396 0.4297454 -0.061127227

C.4.running_var f4 [32]
000000 76 1f 27 3e 25 27 e0 3d d4 35 f2 3e 1e 92 56 3e
       0.16320595 0.10944966 0.47306693 0.20954177
000010 b5 5c 56 3e a7 ed d4 3d ac 4b 15 3e 07 73 98 3e
       0.20933802 0.10396891 0.14579648 0.2977526
000020 5f 24 b3 3d 20 08 06 3e ee 40 90 3e 2b 4e 35 3e
       0.087471716 0.13089037 0.28174537 0.177056
000030 85 b5 3b 3e af 87 86 3e 71 e3 2e 3e fd 26 a0 3d
       0.18330963 0.26275393 0.1707895 0.078199364
000040 4a 58 d5 3d 71 e2 01 3e 08 f1 74 3e cf e7 1d 3f
       0.104172304 0.12684037 0.23920071 0.61681837
000050 cc 8b ad 3d 5d 56 af 3e 62 cf 44 3e 6f 64 33 3f
       0.0847393 0.34245577 0.19219735 0.70075125
000060 b2 da 3f 3e 63 b8 85 3e 50 9d 03 3f 43 76 ce 3e
       0.1873577 0.26117238 0.51411915 0.40324602
000070 7f 2a 44 3e 0c 98 1d 3e 7e 69 a8 3e fe 4e 1b 3e
       0.19156836 0.15390033 0.32892984 0.15166852

C.6.weight f4 [32, 32, 5]
000000 e8 58 84 3d 6b f9 01 3c 3b 86 8b bd 32 42 41 3d
       0.0646227 0.007933001 -0.06812712 0.04718227
000010 8c fd 95 bd 81 ce 38 3d bd 32 06 3b 02 2e cc 3c
       -0.07323751 0.045118812 0.002047702 0.024924282
000020 72 1c 6f 3c e8 24 96 bd 69 25 f2 38 b5 c4 18 bd
       0.014594184 -0.07331258 0.000115464274 -0.03729697
000030 ae 04 fa bc 2c 8f 27 3d 53 bf 08 bd 40 20 03 bd
       -0.03051981 0.040908024 -0.033385586 -0.032013178
000040 c9 b9 a6 3c 78 04 94 3d 01 2d 8d 3d e6 51 9a bd
       0.020352261 0.07227415 0.068933494 -0.07535152
000050 45 bb df 3c 00 f3 82 3d 9e 82 e0 bd a7 83 1c 3d
       0.027310977 0.06394005 -0.10962413 0.03821149
000060 f6 e5 17 3d cc da 2b bd 09 8a 7e ba 9b 80 46 3d
       0.037084542 -0.041956708 -0.00097099 0.04846249
000070 e0 33 83 3d 7d 8e 0a 3d d5 a8 30 bc 50 3a 6d bc
       0.06406379 0.033827294 -0.01078244 -0.014479235
000080 2d 5b 34 bc 8e c0 2f bd 47 96 be bc e5 74 13 bd
       -0.011008066 -0.042908244 -0.023265017 -0.03600015
000090 48 d8 9a bc b9 92 2c 3d 7e e0 19 bc 39 9b 4d 3d
       -0.018901959 0.042132113 -0.009391902 0.05019686
0000a0 45 48 11 bd 25 fe d1 bc a9 63 80 3d cc 30 5a bd
       -0.035469312 -0.02563388 0.06269009 -0.053269193
0000b0 84 fc 5d bd 31 d6 63 bd 36 4c b1 bc ec 81 04 bd
       -0.054195896 -0.05562419 -0.021642786 -0.032350466
0000c0 d9 91 94 3d af 5b e5 bb fd e0 8a bd 38 c1 90 bb
       0.07254381 -0.006999455 -0.06781194 -0.0044175647
0000d0 0f fc 60 3d 43 80 1c 3d 6d 23 e5 3c 00 f4 96 3c
       0.05492788 0.038208257 0.027970994 0.018426895
0000e0 3f 53 b4 bd 7e ea 0a bd 28 e5 58 3b 37 bb 97 3c
       -0.088049404 -0.033915035 0.0033095572 0.018521888
0000f0 6a 9e 80 bd d3 e2 75 bd fb 0f cc bc f6 66 e8 3c
       -0.06280215 -0.06003077 -0.024909964 0.028369408
000100 aa e6 6d bd 7c f2 94 bd 3f 30 8b 3b de b8 12 bd
       -0.058081307 -0.07272813 0.0042476947 -0.035820834
000110 4c 17 83 bd 2a 41 8a 3d af ee 22 3d 73 32 87 bd
       -0.06400928 0.0675071 0.039778408 -0.06601419
000120 19 0c e9 3c af 68 40 bd 65 4c 20 3c 99 ff 55 bd
       0.028448151 -0.046974834 0.009783839 -0.05224571
000130 11 ce 7a bd 15 c2 40 bd 5d 60 80 bd f6 70 4f 3c
       -0.061231676 -0.04706009 -0.0626838 0.012661209
000140 c3 af c9 bc 71 92 bc bb 4e ec af bb f6 c8 c0 3d
       -0.024619943 -0.005754762 -0.005368746 0.0941333
000150 73 b0 34 bd e0 49 de 3c df 8c 14 bb 80 d7 91 3d
       -0.044113588 0.027134836 -0.0022666974 0.071211815
000160 cd c4 00 bd 4c 73 e5 3c 35 06 95 3d 06 c1 a3 bb
       -0.031437684 0.02800908 0.072765745 -0.0049973754
000170 ca 18 1d 3c b0 6d 01 bd 36 47 cb bc 8e 98 0b bc
       0.00958843 -0.031598747 -0.02481423 -0.008520259
000180 3e 2c eb 3c 17 a3 8d bd 8e b0 68 3d 04 e3 9e bd
       0.02870762 -0.069158725 0.056809 -0.077581435
000190 32 4c c2 3c f8 02 9b bd bc d5 56 bd 73 66 91 bd
       0.023717973 -0.075689256 -0.052449927 -0.07099619
0001a0 82 6b 90 3d 71 2a f1 bc d0 ba 1e 3d dc 83 5a 3d
       0.070517555 -0.029439183 0.038752377 0.053348407
0001b0 02 7e a6 3d d5 aa a0 bd 72 fa 08 3d 2f df 74 bc
       0.08129503 -0.078450836 0.03344197 -0.014945789
0001c0 10 be af bd 9a d2 10 3d f7 48 5e bd a1 99 25 bd
       -0.085811734 0.035357095 -0.054268803 -0.040429715
0001d0 0a 8e 83 3d df c7 43 3d 55 d2 aa 3b 57 03 8f bd
       0.06423576 0.047798034 0.005213062 -0.06983059
0001e0 44 ce d1 3b f2 3e 3c bd ba d3 2c bb e7 16 08 3b
       0.0064027626 -0.045958467 -0.0026371316 0.0020765604
0001f0 d9 74 b2 bc 67 60 4c 3c 64 39 15 3c d0 5b f3 bc
       -0.021784233 0.012474156 0.009107921 -0.029706866
000200 31 92 6c 3d be be 24 3d 72 96 93 bc 58 6e 94 bd
       0.057756606 0.04022097 -0.018016074 -0.07247609
000210 26 86 55 bd 10 8e b1 3d 05 0f 2f 3d 04 d1 85 3d
       -0.052129887 0.086696744 0.042738933 0.06534007
000220 88 60 4c 3d cb ca 30 3d a0 90 da 3c 1b de 5d 3d
       0.049896747 0.04316215 0.02668029 0.054166894
000230 1f 4e 1b bd 95 31 21 bc f6 56 14 bd ac 51 55 bd
       -0.0379163 -0.009838481 -0.036215745 -0.05207984
000240 db 28 ec bc 0e 9e ad 3c ee 80 92 bd b1 b3 df 3c
       -0.028828075 0.02119353 -0.07153498 0.027307363
000250 b8 44 ce 3c 4e 08 eb bb e6 cb 60 3d dd d6 65 3d
       0.025179252 -0.007172621 0.054881953 0.056113113
000260 37 b1 a4 3c 79 f4 e8 3c 83 82 b4 bc 92 39 fa 3b
       0.020104034 0.028436886 -0.02203489 0.0076362574
000270 c0 70 87 bb 51 7e 2c 3d 1b 3c 95 3c 3d 0f e4 bc
       -0.004133314 0.042112652 0.018217137 -0.027839297
000280 22 e4 42 bd fd 52 af bd e3 04 85 3c 91 7f 9d 3d
       -0.047580846 -0.08560751 0.016237682 0.07690347
000290 4d 15 21 3d 76 4d 18 3d d4 60 96 bc 57 a8 56 bc
       0.039326955 0.037183248 -0.018356718 -0.013101659
0002a0 f0 b7 8b 3d 52 af 96 3a 7f ec 8e 3c d8 7b 3b bd
       0.06822193 0.0011496341 0.017446755 -0.045772403
0002b0 3c 79 3f bd c0 f9 8f 3c 3b 62 90 3c a3 f1 73 3c
       -0.046746477 0.017575145 0.017624965 0.014889154
0002c0 a3 9b f6 bb ea cc c1 3c eb 0b ef bb ec 29 0a 3d
       -0.0075258776 0.023657281 -0.007295122 0.033731386
0002d0 05 63 43 3d c2 dd 78 bc 3e 1a 96 bb 57 3c 09 3d
       0.047701854 -0.01518959 -0.004580765 0.03350481
0002e0 18 5b 14 3d c0 e2 4d 3d ca 27 64 3c a1 d8 70 bd
       0.036219686 0.050265074 0.013925502 -0.058800343
0002f0 99 c9 51 3d 4b 40 0e 3d 12 83 31 bc 7b 5d 77 bd
       0.05121765 0.034729283 -0.010834472 -0.060391884
000300 dc 56 82 3c 08 02 c3 bc 32 fb 85 3d 63 07 85 3c
       0.015910558 -0.02380468 0.06542052 0.016238874
000310 7a 28 87 bd f5 48 7f bd 50 57 25 bc df 00 34 3c
       -0.06599517 -0.062325437 -0.010091618 0.010986536
000320 7a af af bc 56 e9 0f 3d b8 63 89 bd 7f f6 18 3d
       -0.021445978 0.035134636 -0.06708473 0.037344452
000330 e9 0f 50 bd 14 4c 7d 3d a4 88 7f 3d fc 3c c9 3c
       -0.050796423 0.061840132 0.06238617 0.024565212
000340 76 fb 85 bd 92 7e ea 3c 00 1b 0d 3d 0d da 9a bd
       -0.06542103 0.028624807 0.034449577 -0.07561121
000350 da db 1e 3d 42 d8 9b bc 0a c1 a1 bd 79 6b 7c 3d
       0.038783886 -0.019024018 -0.078981474 0.06162593
000360 87 2c 63 bd 16 22 7b 3d 09 92 60 3d a7 68 bf 3c
       -0.055462386 0.061311804 0.05482677 0.023365332
000370 49 46 a7 3c 36 87 8f bd d5 00 57 3d 49 1a e5 b9
       0.020419257 -0.07008211 0.052491028 -0.00043697868
000380 d2 cd 31 3c 79 7e 67 3d d7 78 fa 3c e9 cf 53 3d
       0.010852294 0.056517098 0.030575199 0.05171195
000390 33 ef a1 bd 2c c9 2d bb d9 b5 0e bd 42 b0 d4 bc
       -0.07906952 -0.0026517613 -0.034841392 -0.025962953
0003a0 4d 6a 8d bd 60 18 3c b9 b9 23 20 bd 81 95 06 bd
       -0.06905041 -0.00017938158 -0.039096568 -0.03285742
0003b0 20 5e 90 3c 0c b1 82 bc 0d b5 be bd af b1 a0 bc
       0.017623007 -0.015953563 -0.093118764 -0.019615976
0003c0 f7 55 d8 3c 7e e7 82 3c 60 4b 0a bd 95 8f d0 bc
       0.026408179 0.015979525 -0.03376329 -0.02545909
0003d0 3f c8 6d bd 05 c3 9b 3d ff 96 8a bd 0b 2b 0b bc
       -0.058052298 0.076055564 -0.067670815 -0.008494149
0003e0 db 63 81 bd 36 42 9e bd f2 c1 13 3d 3c aa 86 bd
       -0.06317874 -0.077274725 0.036073633 -0.065754384
0003f0 fc ab 21 bd e4 09 06 3d 6a 7b 5e 3d 5b f6 24 3d
       -0.039470658 0.032724276 0.054316916 0.040274005

C.6.bias f4 [32]
000000 46 89 04 3d 6f 3e 93 3d dc 68 33 bd 19 e1 91 3d
       0.032357477 0.07189643 -0.043801174 0.07123012
000010 1e 2a f6 bc fe 51 1a bd 2f 65 6a 3d d3 58 96 3d
       -0.03004938 -0.03767585 0.057225402 0.073411606
000020 cc cd 97 bc 25 46 b6 bc 3c e1 2f 3d 3e 51 2b bd
       -0.018530749 -0.022250244 0.04293941 -0.041825525
000030 d5 26 36 bd 1f 86 05 bd fc af 4d 3d e7 88 a3 3c
       -0.044470627 -0.03259861 0.05021666 0.019962741
000040 5a 97 1b bd 9e 9f 52 38 dc 92 48 3d 79 88 12 bd
       -0.037986137 5.0216557e-05 0.04896818 -0.03577468
000050 d4 7c 88 bd e8 97 0d bd 30 ee 60 3d a8 ce 56 bd
       -0.06664434 -0.034568697 0.054914653 -0.052443177
000060 56 5b 82 3d 4b d3 47 bc 5d 58 cb 3c 29 c8 1a bc
       0.06365077 -0.012196372 0.024822408 -0.009447136
000070 3e 06 b3 bc 6e 87 70 bd f8 e6 49 bd 52 aa 32 3b
       -0.021853562 -0.058722906 -0.049292535 0.0027262163

C.7.weight f4 [32]
000000 4a fe 81 3f 69 ee 7d 3f 73 c2 7e 3f 7c 35 80 3f
       1.0155728 0.9919191 0.99515456 1.0016322
000010 62 c7 81 3f 80 66 81 3f 2b e3 7e 3f b9 f4 7e 3f
       1.0138972 1.0109406 0.9956538 0.9959217
000020 a9 2e 7e 3f ed df 7c 3f 4a 0c 81 3f 3a 8b 7a 3f
       0.9928995 0.98779184 1.0081875 0.9786869
000030 fe 9b 80 3f b1 a1 7f 3f 58 9d 7f 3f 66 f5 79 3f
       1.0047605 0.99856097 0.9984946 0.97640073
000040 ac a6 7d 3f d5 cd 80 3f 67 df 7e 3f 79 e6 80 3f
       0.99082446 1.0062815 0.99559635 1.0070335
000050 0d f3 7d 3f d0 2f 7b 3f 63 d9 7e 3f ac 87 81 3f
       0.9919899 0.9811983 0.99550456 1.0119529
000060 d3 e3 7f 3f a7 a5 80 3f 25 d5 83 3f 37 5c 7f 3f
       0.9995701 1.0050553 1.0299422 0.99750084
000070 03 77 82 3f 0a 80 81 3f e3 b5 80 3f f4 7c 81 3f
       1.019257 1.01172 1.0055507 1.0116258

C.7.bias f4 [32]
000000 00 a0 21 3d 3e 4d 2e bc 17 ad a5 3a ce e0 3a bc
       0.03945923 -0.010638533 0.0012640086 -0.011406137
000010 19 c4 25 3c ee f5 30 3b 3a dd fd bc ce 83 cb 3b
       0.010117554 0.0027002054 -0.030989278 0.0062107807
000020 38 57 8a bc 3a 54 70 bc ab ac b1 ba 0c be 0b bc
       -0.016887292 -0.014668519 -0.0013555487 -0.008529197
000030 59 c8 f8 39 5f c9 d4 3b fd 12 e7 3b ba 53 23 bc
       0.00047451517 0.006493732 0.007051824 -0.009968692
000040 47 bb 83 bc 3c ff 15 bc 15 77 28 bc 68 d7 44 3c
       -0.016080512 -0.009155091 -0.010282298 0.0120142475
000050 cc e0 c8 bb 10 22 de bb e8 48 41 3c 54 2c 8f bc
       -0.0061303135 -0.006778963 0.011797167 -0.017477192
000060 0b 05 86 3c d5 54 28 3c 38 14 f8 bb 16 3b 0d 3a
       0.016359827 0.010274132 -0.0075707696 0.00053875276
000070 a1 b6 24 3c 4b 0c af bb 65 47 57 3c 0f cc cc bb
       0.010053308 -0.0053420416 0.01313958 -0.0062499116

C.7.running_mean f4 [32]
000000 5e 5b 34 bd 7e 53 26 3e ff 6a 2a be ca 1d 03 be
       -0.044032447 0.16242787 -0.16642378 -0.12804332
000010 36 c5 06 be 5d fb 8d bd ec 8f 9c be af 2a a1 3d
       -0.13161168 -0.06932709 -0.30578554 0.078694694
000020 a3 ef ff 3e f9 da 68 be 70 60 42 be 6d cd 26 bd
       0.49987516 -0.22739781 -0.189821 -0.040723253
000030 8c 91 38 be 08 30 e8 be 21 60 be be 1c 80 de bd
       -0.18024272 -0.45349145 -0.37182716 -0.10864279
000040 a6 97 f3 be 2c 9a 5c be 96 9c 21 bc 0c d5 40 3e
       -0.47576636 -0.21543187 -0.009863993 0.18831271
000050 f8 b2 b2 bc 9a 13 b2 bd e4 1c fa bb a3 29 62 be
       -0.021813855 -0.08695145 -0.0076328386 -0.22086196
000060 38 dc c1 be 03 be 84 3d 6b f7 96 bd 03 1d 93 be
       -0.37863326 0.06481554 -0.0737141 -0.28733072
000070 7a f7 87 3e f3 ea f3 3d 30 34 7a 3e e8 cb 9a bd
       0.26555997 0.119100474 0.2443397 -0.07558423

C.7.running_var f4 [32]
000000 08 56 61 3e b6 be ad 3d 1f 19 08 3e 99 83 db 3d
       0.22005475 0.08483641 0.13290833 0.1071846
000010 7a 16 f2 3d 9f 19 0a 3e 4d 1f 11 3e 16 a2 a6 3d
       0.11820693 0.13486336 0.14172097 0.08136384
000020 d3 b7 08 3e eb 9e bf 3e e2 02 04 3e bf 49 0d 3e
       0.13351373 0.37425932 0.12891725 0.13797663
000030 86 59 65 3e 5d 17 19 3e a1 e6 07 3e c2 c0 31 3e
       0.22397432 0.14950319 0.13271572 0.17358688
000040 dc f1 0c 3e d1 52 df 3d cd 22 9f 3d 96 b4 a7 3d
       0.13764137 0.10904468 0.077703096 0.08188741
000050 ad c3 bd 3d 7d 90 06 3e a7 82 1a 3e f2 7d a7 3d
       0.09265838 0.13141055 0.15088902 0.08178319
000060 32 6a ed 3d e0 27 27 3e 00 fd 34 3e 6f c5 80 3e
       0.11592521 0.16323805 0.17674637 0.2515063
000070 85 3d 14 3e f9 b1 00 3e 4e 02 08 3e 78 56 d2 3d
       0.14476593 0.12567891 0.13282129 0.10270399

C.10.weight f4 [32, 480]
000000 6b cf d5 bc e5 fc f8 3b 90 19 64 3d c3 63 30 bc
       -0.026099881 0.0075985068 0.05568844 -0.010765973
000010 4b 5f 4c bd 1d 7a 07 bd 57 6c 13 3d 4b 56 81 3d
       -0.049895566 -0.03307544 0.035991993 0.06315287
000020 05 4a 4d 3d b0 4f 24 bd 0c ef 63 3c 89 97 ba 3c
       0.05011942 -0.04011506 0.013911974 0.022777336
000030 8d 87 0e bc ae e4 3d bc 53 60 f0 bc 91 1f 2c 3d
       -0.00869931 -0.011590166 -0.029342806 0.04202229
000040 e3 02 66 3b 89 b3 64 bc 49 7b 13 3d b4 e7 67 3d
       0.0035096935 -0.01395882 0.036006246 0.056617454
000050 1b 9a 33 bb 51 7e 04 3c 54 ec 09 3d c2 3d f3 bb
       -0.0027405086 0.008086757 0.033672646 -0.0074231336
000060 df 16 56 bc 29 83 1f bd cc 6b 63 bb 9b c4 de bb
       -0.013066976 -0.038943443 -0.0034701703 -0.0067983395
000070 6a 1d 84 ba 7b 87 3d 3a 40 29 fe 3c d4 88 08 3d
       -0.0010079567 0.0007229966 0.031025529 0.033333614
000080 ae 61 69 3c f8 bc 8b 3c b8 8f e9 3b 8b 38 d7 3d
       0.01424448 0.01705788 0.0071277283 0.105088316
000090 9c 20 1b bd 0e fd d3 3b 44 27 1f 3d 19 05 ec 3c
       -0.037872896 0.0064693755 0.038855806 0.028811025
0000a0 b4 d1 90 bc 05 ad 11 3c 91 81 34 3d 49 7a 6c bd
       -0.01767812 0.008891349 0.044068877 -0.057733808
0000b0 6c 21 89 3b 01 54 03 bd 71 5c ed bc 94 00 e1 3b
       0.0041848924 -0.032062534 -0.028974744 0.006866524
0000c0 74 ee 91 bc f3 6d 4f bb df 02 94 3c f7 6f 53 3d
       -0.017813899 -0.0031651228 0.018067775 0.05162045
0000d0 58 a9 41 3c e5 57 11 bb 29 ad 9e bc 86 50 53 3d
       0.01182016 -0.0022177633 -0.019369679 0.051590465
0000e0 a2 29 69 bd 35 7e 24 bc 71 74 3f bd d7 69 a4 3c
       -0.05692447 -0.010039856 -0.046741907 0.02007
0000f0 7e 78 39 bd 33 73 f2 3c 1b 1b b1 3c 3a 77 55 bc
       -0.045280926 0.029595947 0.02161937 -0.013028914
000100 a9 0b 8a 3d d4 0b 02 bd 6c 1d 89 3c 67 3d 46 3c
       0.06740505 -0.03174956 0.016737662 0.0120996
000110 e1 9f 53 3c 09 dc d1 3c 46 3c 4d 3c 34 d1 b9 bc
       0.012916536 0.025617616 0.012526577 -0.022682764
000120 84 59 95 bc fb 95 61 bc a5 43 90 bd a2 07 0c 3d
       -0.018231161 -0.013768668 -0.07044152 0.034186967
000130 e0 6b ca bc 09 c7 4b bc 6b d5 c9 3c fc ba a8 bc
       -0.024709642 -0.01243759 0.024637898 -0.020596974
000140 87 ab 4d 3b 63 fc 02 bd c2 1a dd 3c 1f d2 e3 bc
       0.0031382756 -0.031978976 0.026990298 -0.027810154
000150 08 c5 90 bc fd 16 66 3c 5f f3 5d bd 3c f8 b3 bc
       -0.017672077 0.014043567 -0.054187175 -0.021968953
000160 5e ee 84 bc f2 5f 70 3d 0d b7 2f bd 39 c5 1c 3d
       -0.016226944 0.05868525 -0.04289918 0.038274024
000170 b4 1e e7 3c 63 03 7a bc 84 4f e9 bc 86 36 91 3c
       0.028212883 -0.0152595965 -0.028480299 0.017726194
000180 75 55 7d 3a 3f fb 15 3c 8e 19 05 bd da 29 92 bc
       0.0009663918 0.00915414 -0.032495074 -0.017842222
000190 26 e2 20 bc 01 83 fe bc 5c d6 5a bb 5a d6 9c 3c
       -0.009819543 -0.031068327 -0.0033391928 0.01914518
0001a0 55 a8 c3 bc 6b 80 87 bc 31 b2 02 3d 40 20 ac 3c
       -0.023883978 -0.016540727 0.031908218 0.021011472
0001b0 68 5c cc bc d6 a5 4c bd 23 13 0f bc bc 80 0c bc
       -0.024946406 -0.04996284 -0.00873259 -0.008575615
0001c0 b8 12 b4 bc fb 5c 67 3d e5 18 51 bd 76 e4 43 3d
       -0.021981582 0.056485157 -0.051049132 0.0478253
0001d0 96 ca 2d 3c ca 9d a4 3c bb 5f d1 bb 33 92 3d 3c
       0.010607382 0.020094771 -0.006389586 0.011570501
0001e0 5a d3 9a 3c 2a d6 ff ba 0f 28 0f bd a7 83 c5 3c
       0.018899608 -0.0019518782 -0.034950312 0.024110628
0001f0 47 5f ba 3c 07 45 06 bd 46 ad 3e 3c b1 ea 25 3d
       0.02275051 -0.032780673 0.011637991 0.040507022
000200 ee 3e 16 3d 77 b7 1f 3d aa 97 a8 bc 0a e5 10 3d
       0.03668111 0.038993325 -0.020580132 0.03537468
000210 14 ac 1e bc ff eb 92 bd 90 1a 41 bd 04 b9 02 bd
       -0.009684581 -0.07173919 -0.047144473 -0.031914726
000220 89 c3 7f 3c 3b 04 fc bc 76 b9 37 bc ee 89 82 bb
       0.015610584 -0.030763736 -0.011213651 -0.0039837277
000230 72 e1 08 bc 42 91 0a 3d 08 6b 29 bd e7 43 c0 bc
       -0.008354532 0.033829935 -0.04136184 -0.023469878
000240 e0 9e df bb 73 6b 74 3c 95 08 2c 3d d7 bb c3 3c
       -0.0068243593 0.014918196 0.042000372 0.02389328
000250 ee 59 17 bc 19 4c ff 3c 4c 3f 66 3c f5 81 21 bb
       -0.0092377495 0.031164216 0.014053177 -0.002464411
000260 e7 77 e8 bc f6 1a 4a 3c 83 11 46 bd 88 61 62 bd
       -0.028377486 0.01233553 -0.048356544 -0.055268794
000270 bd a7 03 bd 42 60 01 3c 82 7f ad ba 30 e7 06 3d
       -0.03214239 0.007896485 -0.0013236853 0.03293532
000280 44 d1 25 3c 82 d5 89 ba af 67 4a bc 51 b4 4e bd
       0.010120694 -0.0010515901 -0.012353822 -0.050464932
000290 3b bb 51 3c 46 a2 58 3c e3 1a 12 3d 09 91 c7 3c
       0.012800987 0.013222283 0.035670172 0.02436115
0002a0 74 4f a6 3c 1f 18 ad bc aa b7 90 3c b1 93 1d bd
       0.020301558 -0.021129666 0.017665703 -0.038470928
0002b0 2c e0 34 bd 7d 80 b4 bb 7c c8 4b bc f0 cb 47 bd
       -0.0441591 -0.005508481 -0.012437936 -0.048778474
0002c0 b8 f1 0e 3c 44 6c 08 bb 2b 59 9d 3b 10 fd 89 bc
       0.008724622 -0.0020816484 0.0048018894 -0.016844302
0002d0 13 f6 03 bd 01 f1 c1 bb 7a ad 92 bc e7 84 f6 ba
       -0.032217097 -0.0059186225 -0.017904986 -0.0018807919
0002e0 ea 1f 45 3c 1b 4e 5a bb c2 fb 85 3b a5 e4 5e 3c
       0.012031535 -0.0033310715 0.0040888498 0.013604318
0002f0 8c a3 e7 3c e6 68 da bc 54 91 2d 3c 56 31 13 3c
       0.028276227 -0.026661348 0.010593731 0.008983931
000300 66 2a 3c bd 55 d8 1d bd ca d0 67 3d 62 25 e5 bc
       -0.04593887 -0.03853639 0.0565956 -0.027971927
000310 b9 a0 af 3c c3 66 03 3d 32 45 26 bd 9f 59 51 bc
       0.021438943 0.032080423 -0.040593334 -0.012777715
000320 05 82 cf bc 2b 81 d7 bb 23 68 6a 3b dd e2 e1 bc
       -0.025330553 -0.0065766773 0.0035767637 -0.027573997
000330 0b c8 34 3c b8 aa 92 3c e0 42 8b 3c c0 aa 6e 3d
       0.011034022 0.01790367 0.016999662 0.05826831
000340 ae 58 12 bd d9 0d 96 3a 8c da d1 bc 2d a3 c4 3b
       -0.035729103 0.0011448219 -0.025616907 0.0060008974
000350 98 15 a7 bc eb fa b8 bb 6f dd d8 3d eb c2 c2 3c
       -0.020396039 -0.005645146 0.1058911 0.023774585
000360 30 7b 0b 3c b3 5c 7a bc fb 2a ff 3b 48 1f 30 bd
       0.008513257 -0.01528089 0.007787106 -0.042998582
000370 ec 19 ac 3b 5b 02 48 3d dc 6a 3a 3d f7 c1 85 3c
       0.0052521136 0.04883037 0.045512065 0.016327841
000380 e0 57 06 bc ee 94 53 bc 17 85 12 3d e3 38 c1 ba
       -0.008199662 -0.012913926 0.035771456 -0.0014741685
000390 e7 77 fd bc b6 e0 fa 3c d7 8e 8a 3b 87 04 f9 bb
       -0.030940963 0.030624729 0.0042284536 -0.0075994167
0003a0 6c 6d 9c 3d 3b 02 19 3d 3e 33 42 bc 76 49 3a 3c
       0.07638058 0.037355643 -0.011853037 0.0113700535
0003b0 3a 90 83 3c a8 4c cc bc 95 72 2b 3d 44 10 58 bc
       0.016059984 -0.024938896 0.04185732 -0.013187472
0003c0 82 c9 93 3c 18 f4 15 3d 75 76 93 3c 54 55 79 bd
       0.018040422 0.03660974 0.01800082 -0.06087239
0003d0 e4 5e e3 3c 34 db 61 3d d9 35 7d bc 94 6d e2 3c
       0.027755208 0.05514069 -0.015454733 0.027640142
0003e0 da 50 0d 3d 04 8c ff 3c a1 76 2b bc ff 17 4e bd
       0.034500934 0.031194694 -0.010465295 -0.050315853
0003f0 54 8f 11 bc 59 48 42 bc be fb 09 3d e4 01 22 bd
       -0.00888427 -0.011858069 0.033687346 -0.039552584

C.10.bias f4 [32]
000000 79 d6 11 3c be 99 49 3d c9 73 cc bc 5c 0d 5e bd
       0.008901232 0.049218886 -0.024957554 -0.05421196
000010 81 b0 f4 bd 77 28 cb 3c 17 bf e6 bc 86 8e 8c 3d
       -0.11947728 0.024799569 -0.02816729 0.06863122
000020 c2 ce 15 3d f4 ec 7a 3c bd 35 c1 bd 8f 1e 20 3e
       0.036574133 0.015315283 -0.09434078 0.15636657
000030 d0 bc ac 3c 03 52 3a 3c 27 2e 03 3e 50 30 bc bd
       0.021086127 0.011372092 0.12810574 -0.091889024
000040 ba db 75 bd 9c 44 50 3c c1 60 2a bd 2e 15 23 3d
       -0.060024 0.01271167 -0.041596178 0.03981512
000050 f5 97 d0 bd b8 15 92 bd 8f 95 80 3c 08 e2 c4 bd
       -0.101852335 -0.07133049 0.015696315 -0.096134245
000060 f2 49 f3 3d fc 38 f4 3c ce ab 1a bb 2c 2d d4 bd
       0.11879338 0.029812329 -0.0023600939 -0.10360178
000070 6a d6 0e bd c7 8c 90 bd e6 66 b2 bd 2a a6 1d 3d
       -0.03487245 -0.07058101 -0.087110326 0.038488545

C.11.weight f4 [32]
000000 1e 22 af 3f 97 22 ae 3f ec 58 b1 3f 7a a3 ac 3f
       1.3682287 1.3604306 1.3855262 1.3487389
000010 0d d4 ad 3f 96 59 ad 3f b1 cd ad 3f 4f 2a aa 3f
       1.3580338 1.3542964 1.3578397 1.3294162
000020 72 b1 b0 3f 8d 13 ad 3f 12 99 ad 3f 95 f8 ac 3f
       1.3804152 1.3521591 1.3562338 1.3513361
000030 27 ea ad 3f 1a 31 ac 3f 78 86 af 3f 33 ed ac 3f
       1.3587083 1.3452485 1.3712912 1.3509887
000040 6f eb ad 3f ac 87 ad 3f 2c 9f ac 3f d7 f2 ae 3f
       1.3587474 1.3557029 1.3486075 1.3667859
000050 f4 06 b1 3f 65 41 ad 3f e9 8b ad 3f be f1 ae 3f
       1.3830247 1.3535582 1.3558322 1.3667524
000060 18 7e b2 3f 19 61 ae 3f 91 1d ae 3f ab 16 ae 3f
       1.3944731 1.3623382 1.3602773 1.3600668
000070 c3 6c aa 3f 48 76 ac 3f c0 54 ad 3f b7 57 ae 3f
       1.3314441 1.3473597 1.3541489 1.3620518

C.11.bias f4 [32]
000000 31 01 a5 3e af 5b ad 3e b9 43 b6 3e b9 0f a0 3e
       0.3222747 0.33859012 0.35598543 0.31261995
000010 31 4b 9d 3e e1 a9 98 3e ba 27 9d 3e 00 f0 9e 3e
       0.3072143 0.29817107 0.3069437 0.3104248
000020 be 1c 9f 3e 74 c6 a8 3e 45 b9 a6 3e 7e 7f a0 3e
       0.31076616 0.32963908 0.32563224 0.3134727
000030 c4 9f 9d 3e f5 d5 a5 3e f9 1b aa 3e 76 5b a3 3e
       0.30785954 0.323898 0.33224466 0.31905717
000040 ac a2 9e 3e a4 2c a8 3e 1c f2 a4 3e 4a 31 ae 3e
       0.30983484 0.32846558 0.32215965 0.3402198
000050 39 f8 b3 3e 52 5d a5 3e ad 50 9f 3e 19 01 a2 3e
       0.35150316 0.3229776 0.31116238 0.31641462
000060 dc e4 b2 3e 47 94 ac 3e 4c a9 af 3e cc c0 aa 3e
       0.3494023 0.33706877 0.3430885 0.33350217
000070 3a aa 99 3e 13 66 a2 3e 5b 90 a7 3e da 4e a7 3e
       0.30012685 0.317185 0.32727322 0.32677346

C.11.running_mean f4 [32]
000000 25 c1 a8 be c6 a9 54 bc 66 be aa bd df a2 88 bd
       -0.32959858 -0.01297993 -0.08337097 -0.0667169
000010 eb 50 25 bf c6 e4 0b 3e a7 f7 ff be 26 78 63 3e
       -0.64576596 0.13661489 -0.4999363 0.22213802
000020 92 fe 6c 3e 8f 93 29 3f 3d a6 cf be b7 1c 14 3f
       0.23143986 0.6624078 -0.40556517 0.57856315
000030 e0 0a b8 3e c4 a3 a1 bc 73 1e f0 3d aa 81 61 3e
       0.35945797 -0.01973141 0.11724558 0.22022119
000040 ae 6c 85 be 0a 2d 5a be e4 67 f4 be 78 26 8a 3e
       -0.2605948 -0.21306244 -0.47735512 0.26982474
000050 c5 24 0f bf 16 64 84 be 72 54 9a bd d3 38 e5 be
       -0.5591548 -0.2585761 -0.07535638 -0.44769916
000060 07 70 fc 3e 55 50 61 3d 92 c1 65 be 52 90 99 be
       0.4930422 0.05500825 -0.22437122 -0.2999292
000070 47 94 dc 3e f1 fb 56 3e 72 7a e6 be c5 46 27 3e
       0.43081877 0.20994546 -0.45015293 0.1633559

C.11.running_var f4 [32]
000000 8d 13 1f 3d 41 1c 1c 3d 57 01 ea 3c 1b b5 b7 3c
       0.038837004 0.038112883 0.028565092 0.022425225
000010 8f 14 1d 3d 19 3a ea 3c 7b e2 fd 3c 11 80 c1 3c
       0.038349684 0.028592156 0.030991783 0.023620637
000020 43 e3 84 3d 22 ad 86 3d 6e 32 be 3c 2e ba da 3c
       0.06488659 0.06575991 0.023217406 0.026700106
000030 95 da 23 3d 4f 5c 34 3d 0e ce 15 3d b4 47 fb 3c
       0.040003378 0.044033345 0.036573462 0.03067384
000040 9b 55 d8 3c 03 b1 2d 3d 26 3e c2 3c 4d 20 63 3d
       0.026408007 0.04240514 0.023711275 0.055450726
000050 a1 5b 03 3d 36 64 6b 3d fc 49 c2 3c 36 65 0c 3d
       0.032069806 0.057468615 0.02371692 0.03427621
000060 62 81 02 3d 3b b2 67 3d 15 cb 19 3d 2b 70 0e 3d
       0.03186167 0.05656646 0.03754719 0.03477494
000070 0c ac e3 3c 40 5a 0b 3d b4 f9 44 3d 73 21 45 3d
       0.027792 0.034021616 0.048089698 0.048127603

C.13.weight f4 [18, 32]
000000 90 18 02 be a3 aa 42 be 97 78 34 be 6b 31 32 be
       -0.12704682 -0.19010405 -0.17624126 -0.17401664
000010 3f fd 0f 3e 73 8d 4e 3d b6 d5 e7 3d 76 3b 1e be
       0.1406145 0.050427865 0.11320059 -0.1545237
000020 20 ec a9 3d aa bd bc 3d 6e b4 04 be 3a 57 87 bd
       0.082969904 0.09215863 -0.12959453 -0.06608434
000030 cf 69 1a be b2 1c 94 3c 18 c8 3a 3e c9 8a bb bd
       -0.15079425 0.01808009 0.18240392 -0.091573305
000040 99 27 2b 3e d0 15 ed 3d bc 0f 11 be fe 1b 53 be
       0.16714324 0.11576426 -0.14166158 -0.20616147
000050 69 6c 4b 3e 79 10 04 be ef 51 54 3e 05 0a 48 ba
       0.19865574 -0.12896909 0.2073438 -0.00076308876
000060 d0 bf cf bc 2d 05 e7 3d b9 b6 fb 3d 34 52 35 be
       -0.025360018 0.11280284 0.12290711 -0.17707139
000070 a6 fa 6f bd 64 f6 47 bd 3c 9d 2f be 2b 5a 00 3d
       -0.058588646 -0.04881896 -0.17149824 0.03133599
000080 b3 70 dd 3d 65 62 d8 3b 77 62 f1 bd 25 1a de bd
       0.10812511 0.0066035264 -0.11786359 -0.108448304
000090 8e c3 fc 3d 19 0f f3 bd 46 67 c8 bc f5 91 9d 3d
       0.123419866 -0.11868114 -0.024463307 0.07693855
0000a0 68 a8 b8 3d 68 c6 11 3e ce 88 19 be 4f 67 4a 3e
       0.09016496 0.14235842 -0.14993593 0.19765972
0000b0 df fd 92 bd f9 9e 47 be 38 a8 a0 3c 93 71 39 3c
       -0.07177328 -0.19494237 0.019611463 0.011318582
0000c0 15 5a 35 bd 49 eb 40 3e 79 41 49 be 04 54 49 be
       -0.044275362 0.18839754 -0.19653882 -0.19660956
0000d0 d0 30 06 be 8a 82 1f bc 8d ac 27 3e 8d fa 78 3d
       -0.13104558 -0.009735713 0.16374417 0.06078582
0000e0 e7 bc 7b 3d 64 73 1d bd ad 46 b5 bb dd d8 4c be
       0.06145945 -0.038440123 -0.005532107 -0.20004602
0000f0 ed 39 e4 3d 08 36 8f 3d b7 ff 4e be bc af 67 3d
       0.11143861 0.069927275 -0.20214735 0.056564078
000100 24 58 f5 3d 63 02 25 3e d8 d6 36 be 48 1c 3a 3d
       0.11979702 0.16114192 -0.17855394 0.045437127
000110 74 9f ab 3d ea 35 43 be 42 18 6f bd f9 9c 64 be
       0.08380023 -0.19063535 -0.058372743 -0.22325505
000120 d8 f4 02 be dc 4b 1f 3e 82 3e 20 bd 3a fc 15 be
       -0.12788713 0.15556282 -0.039122112 -0.14646998
000130 40 54 54 be 19 c9 31 bd 12 b9 31 3d dd cd 3e be
       -0.20735264 -0.043404672 0.043389387 -0.18633218
000140 e5 40 de 3d 0f 99 7b 3c 6d ed c5 3d c7 08 14 be
       0.108522214 0.015356316 0.09664426 -0.14456473
000150 ae 9f 9a 3c a2 d5 99 3d 0f 8e 34 be 0e a8 03 3e
       0.01887497 0.0751145 -0.17632316 0.12857077
000160 b1 d7 d5 3d e0 87 36 be f7 06 dc 3c a9 50 1a 3e
       0.104415305 -0.1782527 0.02685879 0.15069832
000170 25 22 2d 3e 0c 28 d8 bd d6 d4 33 be 97 3d 30 3e
       0.16907556 -0.10554513 -0.17561659 0.17210995
000180 3b 2b 46 bd 61 71 ca bd fa 57 11 bb b9 8c 26 bd
       -0.04838107 -0.098849066 -0.0022177682 -0.040661547
000190 c2 8e 44 be 5a 78 38 be b4 4d cf 3d 5a 85 84 bd
       -0.19195083 -0.1801466 0.101222426 -0.06470747
0001a0 5f f9 f6 3d a0 5b 5d 3e 08 0f 17 3e 23 6f 1a 3e
       0.120592825 0.21616983 0.14751828 0.15081458
0001b0 e8 1e b5 3d 64 bc 98 bd 6b d1 47 3d 05 c3 29 bd
       0.088437855 -0.07457808 0.0487837 -0.04144575
0001c0 cf 60 89 bd a6 94 35 be 74 07 32 be 9f f3 ee bd
       -0.06707918 -0.17732486 -0.17385656 -0.11667561
0001d0 00 b6 ce 3c e5 60 b9 bc a3 e2 1a 3d 41 5f 81 bd
       0.025233269 -0.02262921 0.037813794 -0.06316996
0001e0 97 7e db 3c 62 61 9a bd 9d 49 0f bd f8 15 30 3e
       0.026793761 -0.075381055 -0.034982312 0.1719588
0001f0 c0 60 f4 bd 12 37 35 be 12 9c 14 3d f1 f7 2d be
       -0.11932516 -0.17696789 0.036281653 -0.16989113
000200 df 6b ec bd 1f fe a6 bd 3b 6d ea bd f0 b6 4f bd
       -0.11544012 -0.081539385 -0.11446615 -0.050711572
000210 4f 56 d4 3d d0 05 54 be 19 ca af 3d 34 80 1a 3d
       0.103680246 -0.20705342 0.08583469 0.03771992
000220 e6 40 0e be 3f 99 fe bc 0b 33 15 be b8 fc 20 3d
       -0.13891944 -0.031078933 -0.14570253 0.03930351
000230 a0 df 2d 3e 0a cd f9 3d 8f bd 30 3e 3e e8 0c be
       0.16979837 0.12197311 0.17259811 -0.13760468
000240 7d 26 28 3e f6 23 1f 3e d1 55 6a 3d 7e 1e cb bd
       0.16420932 0.15541062 0.057210747 -0.09917925
000250 59 3f 64 be 36 82 c4 3c 14 bd 77 bd 01 bb 08 be
       -0.2228979 0.02398787 -0.060483053 -0.13352586
000260 fa 9e 5b be 7f bd a0 39 c9 c0 c9 bd 30 30 6c 3d
       -0.21447363 0.00030658764 -0.09851224 0.057663143
000270 68 28 34 be 5d 4d f1 bc 4b 4f 52 3e 91 61 26 3d
       -0.17593539 -0.029455835 0.2053806 0.04062039
000280 12 2a de bd 3e 5f 02 3d 61 9b 44 3e 69 4d ca 3d
       -0.10847868 0.03182911 0.19199897 0.09878046
000290 ef 82 0f be 03 9e 90 3c 68 de f4 bd 44 cf f9 bd
       -0.14014791 0.01765347 -0.11956483 -0.12197736
0002a0 74 ed 53 be 81 b8 00 3e 80 06 8d 3d 9d 03 f8 3d
       -0.2069605 0.12570383 0.068860054 0.12110064
0002b0 ce e7 ed 3d 55 30 16 3e bd b3 44 3e 6a 84 d5 bd
       0.11616479 0.14666875 0.1920919 -0.104256466
0002c0 33 59 00 3e 17 ac 8a bc 1e 36 37 3e b6 45 2a bd
       0.12534027 -0.016927762 0.17891738 -0.041570388
0002d0 f9 ff a8 bd eb 84 fe bc ad 1d 26 3e f4 7d bc bc
       -0.08251948 -0.03106924 0.16222258 -0.023009278
0002e0 f3 3f c4 bd b5 1d b7 3d f1 1f 98 bd 73 7f 3d bd
       -0.0958251 0.08941213 -0.07427967 -0.046264123
0002f0 6d 75 22 3e d0 9f 3e be 9e fe ec bd d8 fc 34 be
       0.15865107 -0.18615651 -0.11572002 -0.17674577
000300 79 18 69 be 5d 82 0a 3e 3f 54 45 bd cb 1a b6 3d
       -0.22763242 0.13526292 -0.048176046 0.08891829
000310 76 90 bb 3d 3e a7 42 3b 3a ab 16 3e 2c b5 56 be
       0.09158413 0.0029701735 0.14713755 -0.20967549
000320 6d 2e 24 3e 8a e7 88 3d 02 8e 10 be 5d 23 17 3e
       0.16033335 0.066847876 -0.14116672 0.14759584
000330 2a 9e bf 3d cc 8c 2c 3e e1 af c2 bd 55 b2 24 be
       0.09356339 0.16850585 -0.095062025 -0.16083653
000340 14 93 fd 3d f7 0d 0d be d0 4d 1f bd e7 cc 1b 3e
       0.123815686 -0.13774858 -0.038892567 0.15214883
000350 1c 03 52 be 60 e5 96 bb dc e3 df 3d 06 d7 e8 bd
       -0.20508999 -0.0046049803 0.109321326 -0.113691375
000360 0f 10 e7 bd 39 d9 c9 bd f0 91 f5 bd 4b 1b 04 3e
       -0.1128236 -0.09855885 -0.11990726 0.12901036
000370 86 51 d4 bd c2 51 f9 3d 6f 7f c9 bb 51 83 78 ba
       -0.10367112 0.12173797 -0.0061492245 -0.0009480017
000380 d4 b1 af bc 47 aa 2b be fd 4e c2 3d b4 b1 b2 3d
       -0.0214471 -0.16764174 0.09487722 0.087253004
000390 69 d4 bc 3d 91 cd ec bb 45 f9 9e 3c ba c9 3f be
       0.092202015 -0.007226654 0.01940597 -0.18729296
0003a0 d1 69 0f bd 17 bb 71 bc 06 d5 c9 bd ed 2f a5 bd
       -0.035013024 -0.014754078 -0.09855084 -0.08065782
0003b0 71 96 d0 3d eb 42 e6 3d f7 fa 0c be 12 14 2b 3e
       0.101849444 0.11243232 -0.1376761 0.16706875
0003c0 6f 2a f1 bd a7 7d 05 be f8 55 31 3e 7a 8c e0 3d
       -0.11775672 -0.13036214 0.1731795 0.10964294
0003d0 8a 0f 2a be ab 06 a1 bd eb 58 a1 3d de 98 38 be
       -0.1660749 -0.078626 0.07878288 -0.18027064
0003e0 26 85 17 3e f0 9a a0 3d c7 99 9c bc a1 79 f8 bd
       0.14796886 0.07842052 -0.019116296 -0.12132574
0003f0 dc a7 e7 3d 60 61 1f 3e 05 ee ed 3c 35 18 74 bd
       0.113113135 0.1556449 0.02904416 -0.059593398
